…
2023-12-12 15:17:29.622182: W tensorflow/core/common_runtime/gpu/gpu_device.cc:2256] Cannot dlopen some GPU libraries. Please make sure the missing libraries mentioned above are installed properly if you would like to use GPU. Follow the guide at https://www.tensorflow.org/install/gpu for how to download and setup the required libraries for your platform.
Skipping registering GPU devices...
Model: "sequential"
_________________________________________________________________
 Layer (type)                Output Shape              Param #   
=================================================================
 conv2d (Conv2D)             (None, 224, 224, 32)      896       
                                                                 
 batch_normalization (Batch  (None, 224, 224, 32)      128       
 Normalization)                                                  
                                                                 
 conv2d_1 (Conv2D)           (None, 224, 224, 32)      9248      
                                                                 
 batch_normalization_1 (Bat  (None, 224, 224, 32)      128       
 chNormalization)                                                
                                                                 
 max_pooling2d (MaxPooling2  (None, 74, 74, 32)        0         
 D)                                                              
                                                                 
 conv2d_2 (Conv2D)           (None, 74, 74, 64)        18496     
                                                                 
 batch_normalization_2 (Bat  (None, 74, 74, 64)        256       
 chNormalization)                                                
                                                                 
 conv2d_3 (Conv2D)           (None, 74, 74, 64)        36928     
                                                                 
 batch_normalization_3 (Bat  (None, 74, 74, 64)        256       
 chNormalization)                                                
                                                                 
 conv2d_4 (Conv2D)           (None, 74, 74, 64)        36928     
                                                                 
 batch_normalization_4 (Bat  (None, 74, 74, 64)        256       
 chNormalization)                                                
                                                                 
 max_pooling2d_1 (MaxPoolin  (None, 24, 24, 64)        0         
 g2D)                                                            
                                                                 
 conv2d_5 (Conv2D)           (None, 24, 24, 128)       73856     
                                                                 
 batch_normalization_5 (Bat  (None, 24, 24, 128)       512       
 chNormalization)                                                
                                                                 
 conv2d_6 (Conv2D)           (None, 24, 24, 128)       147584    
                                                                 
 batch_normalization_6 (Bat  (None, 24, 24, 128)       512       
 chNormalization)                                                
                                                                 
 conv2d_7 (Conv2D)           (None, 24, 24, 128)       147584    
                                                                 
 batch_normalization_7 (Bat  (None, 24, 24, 128)       512       
 chNormalization)                                                
                                                                 
 max_pooling2d_2 (MaxPoolin  (None, 8, 8, 128)         0         
 g2D)                                                            
                                                                 
 global_average_pooling2d (  (None, 128)               0         
 GlobalAveragePooling2D)                                         
                                                                 
 dense (Dense)               (None, 200)               25800     
                                                                 
 dropout (Dropout)           (None, 200)               0         
                                                                 
 dense_1 (Dense)             (None, 6)                 1206      
                                                                 
=================================================================
Total params: 501086 (1.91 MB)
Trainable params: 499806 (1.91 MB)
Non-trainable params: 1280 (5.00 KB)
_________________________________________________________________
Found 40150 images belonging to 6 classes.
Found 5050 images belonging to 6 classes.
/data/seanoh/capstone/face_data/1_less_param_CNN.py:293: UserWarning: `Model.fit_generator` is deprecated and will be removed in a future version. Please use `Model.fit`, which supports generators.
…
